…
Average actions of users: 106.04453870625663
The number of items: 1683
Average actions of items: 59.45303210463734
The number of inters: 100000
The sparsity of the dataset: 93.70575143257098%
Remain Fields: ['user_id', 'item_id']
Sun 07 Jul 2024 15:17:55 INFO  [Training]: train_batch_size = [4096] train_neg_sample_args: [{'distribution': 'uniform', 'sample_num': 5, 'alpha': 1.0, 'dynamic': False, 'candidate_num': 0}]
Sun 07 Jul 2024 15:17:55 INFO  [Evaluation]: eval_batch_size = [4096] eval_args: [{'split': {'RS': [0.8, 0.1, 0.1]}, 'group_by': 'user', 'order': 'RO', 'mode': 'full'}]
Sun 07 Jul 2024 15:17:57 INFO  ANS(
  (user_embedding): Embedding(944, 64)
  (item_embedding): Embedding(1683, 64)
  (mf_loss): BPRLoss()
  (reg_loss): EmbLoss()
  (user_gate): Linear(in_features=64, out_features=64, bias=True)
  (item_gate): Linear(in_features=64, out_features=64, bias=True)
  (pos_gate): Linear(in_features=64, out_features=64, bias=True)
  (neg_gate): Linear(in_features=64, out_features=64, bias=True)
  (hard_gate): Linear(in_features=64, out_features=64, bias=True)
  (conf_gate): Linear(in_features=64, out_features=64, bias=True)
  (easy_gate): Linear(in_features=64, out_features=64, bias=True)
  (margin_model): Linear(in_features=64, out_features=1, bias=True)
)
Trainable parameters: 197313
Sun 07 Jul 2024 15:17:57 INFO  FLOPs: 0.0
Sun 07 Jul 2024 15:18:01 INFO  epoch 0 training [time: 3.71s, train loss: 71.2513]
Sun 07 Jul 2024 15:18:01 INFO  epoch 0 evaluating [time: 0.11s, valid_score: 0.012800]
Sun 07 Jul 2024 15:18:01 INFO  valid result: 
recall@10 : 0.0067    recall@20 : 0.0128    mrr@10 : 0.0242    mrr@20 : 0.0282    ndcg@10 : 0.009    ndcg@20 : 0.0109    hit@10 : 0.07    hit@20 : 0.1251    precision@10 : 0.0073    precision@20 : 0.0073
…
