…
Average actions of users: 106.04453870625663
The number of items: 1683
Average actions of items: 59.45303210463734
The number of inters: 100000
The sparsity of the dataset: 93.70575143257098%
Remain Fields: ['user_id', 'item_id']
Fri 05 Jul 2024 22:35:49 INFO  [Training]: train_batch_size = [2048] train_neg_sample_args: [{'distribution': 'uniform', 'sample_num': 1, 'alpha': 1.0, 'dynamic': False, 'candidate_num': 0}]
Fri 05 Jul 2024 22:35:49 INFO  [Evaluation]: eval_batch_size = [4096] eval_args: [{'split': {'RS': [0.8, 0.1, 0.1]}, 'group_by': 'user', 'order': 'RO', 'mode': 'full'}]
Fri 05 Jul 2024 22:35:50 INFO  ANS(
  (user_embedding): Embedding(944, 64)
  (item_embedding): Embedding(1683, 64)
  (mf_loss): BPRLoss()
  (reg_loss): EmbLoss()
  (user_gate): Linear(in_features=64, out_features=64, bias=True)
  (item_gate): Linear(in_features=64, out_features=64, bias=True)
  (pos_gate): Linear(in_features=64, out_features=64, bias=True)
  (neg_gate): Linear(in_features=64, out_features=64, bias=True)
  (hard_gate): Linear(in_features=64, out_features=64, bias=True)
  (conf_gate): Linear(in_features=64, out_features=64, bias=True)
  (easy_gate): Linear(in_features=64, out_features=64, bias=True)
  (margin_model): Linear(in_features=64, out_features=1, bias=True)
)
Trainable parameters: 197313
Fri 05 Jul 2024 22:35:50 INFO  FLOPs: 0.0
Fri 05 Jul 2024 22:35:52 INFO  epoch 0 training [time: 1.10s, train loss: 28.0637]
Fri 05 Jul 2024 22:35:52 INFO  epoch 0 evaluating [time: 0.10s, valid_score: 0.012000]
Fri 05 Jul 2024 22:35:52 INFO  valid result: 
recall@5 : 0.004    recall@10 : 0.0065    recall@20 : 0.012    mrr@5 : 0.0206    mrr@10 : 0.0234    mrr@20 : 0.0275    ndcg@5 : 0.0094    ndcg@10 : 0.0087    ndcg@20 : 0.0104    hit@5 : 0.0456    hit@10 : 0.0679    hit@20 : 0.1251    precision@5 : 0.0093    precision@10 : 0.0071    precision@20 : 0.0071
…
