…
The number of items: 17633
Average actions of items: 5.265086206896552
The number of inters: 92834
The sparsity of the dataset: 99.72188126708227%
Remain Fields: ['user_id', 'artist_id']
Wed 10 Jul 2024 19:11:06 INFO  [Training]: train_batch_size = [4096] train_neg_sample_args: [{'distribution': 'uniform', 'sample_num': 5, 'alpha': 1.0, 'dynamic': False, 'candidate_num': 0}]
Wed 10 Jul 2024 19:11:06 INFO  [Evaluation]: eval_batch_size = [4096] eval_args: [{'split': {'RS': [0.8, 0.1, 0.1]}, 'group_by': 'user', 'order': 'RO', 'mode': 'full'}]
Wed 10 Jul 2024 19:11:07 INFO  ANS(
  (user_embedding): Embedding(1893, 64)
  (item_embedding): Embedding(17633, 64)
  (mf_loss): BPRLoss()
  (reg_loss): EmbLoss()
  (user_gate): Linear(in_features=64, out_features=64, bias=True)
  (item_gate): Linear(in_features=64, out_features=64, bias=True)
  (pos_gate): Linear(in_features=64, out_features=64, bias=True)
  (neg_gate): Linear(in_features=64, out_features=64, bias=True)
  (hard_gate): Linear(in_features=64, out_features=64, bias=True)
  (conf_gate): Linear(in_features=64, out_features=64, bias=True)
  (easy_gate): Linear(in_features=64, out_features=64, bias=True)
  (margin_model): Linear(in_features=64, out_features=1, bias=True)
)
Trainable parameters: 1278849
Wed 10 Jul 2024 19:11:07 INFO  FLOPs: 0.0
Wed 10 Jul 2024 19:11:10 INFO  epoch 0 training [time: 2.26s, train loss: 65.6662]
Wed 10 Jul 2024 19:11:12 INFO  epoch 0 evaluating [time: 1.69s, valid_score: 0.139000]
Wed 10 Jul 2024 19:11:12 INFO  valid result: 
recall@10 : 0.098    recall@20 : 0.139    ndcg@10 : 0.083    ndcg@20 : 0.1    mrr@10 : 0.142    mrr@20 : 0.148    hit@10 : 0.347    hit@20 : 0.434    precision@10 : 0.048    precision@20 : 0.034
…
