…
The number of items: 17633
Average actions of items: 5.265086206896552
The number of inters: 92834
The sparsity of the dataset: 99.72188126708227%
Remain Fields: ['user_id', 'artist_id']
Wed 10 Jul 2024 18:21:50 INFO  [Training]: train_batch_size = [4096] train_neg_sample_args: [{'distribution': 'uniform', 'sample_num': 5, 'alpha': 1.0, 'dynamic': False, 'candidate_num': 0}]
Wed 10 Jul 2024 18:21:50 INFO  [Evaluation]: eval_batch_size = [4096] eval_args: [{'split': {'RS': [0.8, 0.1, 0.1]}, 'group_by': 'user', 'order': 'RO', 'mode': 'full'}]
Wed 10 Jul 2024 18:21:52 INFO  ANS(
  (user_embedding): Embedding(1893, 64)
  (item_embedding): Embedding(17633, 64)
  (mf_loss): BPRLoss()
  (reg_loss): EmbLoss()
  (user_gate): Linear(in_features=64, out_features=64, bias=True)
  (item_gate): Linear(in_features=64, out_features=64, bias=True)
  (pos_gate): Linear(in_features=64, out_features=64, bias=True)
  (neg_gate): Linear(in_features=64, out_features=64, bias=True)
  (hard_gate): Linear(in_features=64, out_features=64, bias=True)
  (conf_gate): Linear(in_features=64, out_features=64, bias=True)
  (easy_gate): Linear(in_features=64, out_features=64, bias=True)
  (margin_model): Linear(in_features=64, out_features=1, bias=True)
)
Trainable parameters: 1278849
Wed 10 Jul 2024 18:21:52 INFO  FLOPs: 0.0
Wed 10 Jul 2024 18:21:55 INFO  epoch 0 training [time: 2.76s, train loss: 41.3052]
Wed 10 Jul 2024 18:21:58 INFO  epoch 0 evaluating [time: 2.21s, valid_score: 0.062000]
Wed 10 Jul 2024 18:21:58 INFO  valid result: 
recall@10 : 0.035    recall@20 : 0.062    ndcg@10 : 0.026    ndcg@20 : 0.038    mrr@10 : 0.048    mrr@20 : 0.055    hit@10 : 0.159    hit@20 : 0.264    precision@10 : 0.017    precision@20 : 0.015
…
