…
The number of inters: 100000
The sparsity of the dataset: 93.70575143257098%
Remain Fields: ['user_id', 'item_id']
Mon 08 Jul 2024 17:39:24 INFO  Building augmented dataset with K=20 and P=20
Mon 08 Jul 2024 17:41:02 INFO  [Training]: train_batch_size = [4096] train_neg_sample_args: [{'distribution': 'uniform', 'sample_num': 5, 'alpha': 1.0, 'dynamic': False, 'candidate_num': 0}]
Mon 08 Jul 2024 17:41:02 INFO  [Evaluation]: eval_batch_size = [4096] eval_args: [{'split': {'RS': [0.8, 0.1, 0.1]}, 'group_by': 'user', 'order': 'RO', 'mode': 'full'}]
Mon 08 Jul 2024 17:41:04 INFO  ANS(
  (user_embedding): Embedding(944, 64)
  (item_embedding): Embedding(1683, 64)
  (mf_loss): BPRLoss()
  (reg_loss): EmbLoss()
  (user_gate): Linear(in_features=64, out_features=64, bias=True)
  (item_gate): Linear(in_features=64, out_features=64, bias=True)
  (pos_gate): Linear(in_features=64, out_features=64, bias=True)
  (neg_gate): Linear(in_features=64, out_features=64, bias=True)
  (hard_gate): Linear(in_features=64, out_features=64, bias=True)
  (conf_gate): Linear(in_features=64, out_features=64, bias=True)
  (easy_gate): Linear(in_features=64, out_features=64, bias=True)
  (margin_model): Linear(in_features=64, out_features=1, bias=True)
)
Trainable parameters: 197313
Mon 08 Jul 2024 17:41:04 INFO  FLOPs: 0.0
Mon 08 Jul 2024 17:41:08 INFO  epoch 0 training [time: 2.77s, train loss: 87.7976]
Mon 08 Jul 2024 17:41:08 INFO  epoch 0 evaluating [time: 0.33s, valid_score: 0.013000]
Mon 08 Jul 2024 17:41:08 INFO  valid result: 
recall@10 : 0.007    recall@20 : 0.013    ndcg@10 : 0.01    ndcg@20 : 0.011    mrr@10 : 0.026    mrr@20 : 0.029    hit@10 : 0.076    hit@20 : 0.127    precision@10 : 0.008    precision@20 : 0.007
…
