…
Average actions of users: 106.04453870625663
The number of items: 1683
Average actions of items: 59.45303210463734
The number of inters: 100000
The sparsity of the dataset: 93.70575143257098%
Remain Fields: ['user_id', 'item_id']
Fri 05 Jul 2024 20:49:55 INFO  [Training]: train_batch_size = [4096] train_neg_sample_args: [{'distribution': 'uniform', 'sample_num': 5, 'alpha': 1.0, 'dynamic': False, 'candidate_num': 0}]
Fri 05 Jul 2024 20:49:55 INFO  [Evaluation]: eval_batch_size = [4096] eval_args: [{'split': {'RS': [0.8, 0.1, 0.1]}, 'group_by': 'user', 'order': 'RO', 'mode': 'full'}]
Fri 05 Jul 2024 20:49:56 INFO  ANS(
  (user_embedding): Embedding(944, 64)
  (item_embedding): Embedding(1683, 64)
  (mf_loss): BPRLoss()
  (reg_loss): EmbLoss()
  (user_gate): Linear(in_features=64, out_features=64, bias=True)
  (item_gate): Linear(in_features=64, out_features=64, bias=True)
  (pos_gate): Linear(in_features=64, out_features=64, bias=True)
  (neg_gate): Linear(in_features=64, out_features=64, bias=True)
  (hard_gate): Linear(in_features=64, out_features=64, bias=True)
  (conf_gate): Linear(in_features=64, out_features=64, bias=True)
  (easy_gate): Linear(in_features=64, out_features=64, bias=True)
  (margin_model): Linear(in_features=64, out_features=1, bias=True)
)
Trainable parameters: 197313
Fri 05 Jul 2024 20:49:56 INFO  FLOPs: 0.0
Fri 05 Jul 2024 20:50:04 INFO  epoch 0 training [time: 7.24s, train loss: 71.9699]
Fri 05 Jul 2024 20:50:04 INFO  epoch 0 evaluating [time: 0.14s, valid_score: 0.012400]
Fri 05 Jul 2024 20:50:04 INFO  valid result: 
recall@5 : 0.0042    recall@10 : 0.0067    recall@20 : 0.0124    mrr@5 : 0.0216    mrr@10 : 0.0253    mrr@20 : 0.0289    ndcg@5 : 0.0099    ndcg@10 : 0.0094    ndcg@20 : 0.0109    hit@5 : 0.0456    hit@10 : 0.0753    hit@20 : 0.1251    precision@5 : 0.0095    precision@10 : 0.0078    precision@20 : 0.0073
…
