…
The number of items: 1683
Average actions of items: 59.45303210463734
The number of inters: 100000
The sparsity of the dataset: 93.70575143257098%
Remain Fields: ['user_id', 'item_id', 'rating', 'timestamp']
Tue 23 Apr 2024 16:32:46 INFO  [Training]: train_batch_size = [1024] train_neg_sample_args: [{'distribution': 'uniform', 'sample_num': 1, 'alpha': 1.0, 'dynamic': False, 'candidate_num': 0}]
Tue 23 Apr 2024 16:32:46 INFO  [Evaluation]: eval_batch_size = [4096] eval_args: [{'split': {'RS': [0.8, 0.0, 0.2]}, 'group_by': 'user', 'order': 'RO', 'mode': 'full'}]
Tue 23 Apr 2024 16:32:47 INFO  ANS(
  (user_embedding): Embedding(944, 64)
  (item_embedding): Embedding(1683, 64)
  (mf_loss): BPRLoss()
  (reg_loss): EmbLoss()
  (user_gate): Linear(in_features=64, out_features=64, bias=True)
  (item_gate): Linear(in_features=64, out_features=64, bias=True)
  (pos_gate): Linear(in_features=64, out_features=64, bias=True)
  (neg_gate): Linear(in_features=64, out_features=64, bias=True)
  (hard_gate): Linear(in_features=64, out_features=64, bias=True)
  (conf_gate): Linear(in_features=64, out_features=64, bias=True)
  (easy_gate): Linear(in_features=64, out_features=64, bias=True)
  (margin_model): Linear(in_features=64, out_features=1, bias=True)
)
Trainable parameters: 197313
Tue 23 Apr 2024 16:32:48 INFO  FLOPs: 0.0
Tue 23 Apr 2024 16:32:50 INFO  epoch 0 training [time: 1.49s, train loss: 63.5774]
Tue 23 Apr 2024 16:32:50 INFO  Saving current: saved/ANS-Apr-23-2024_16-32-48.pth
Tue 23 Apr 2024 16:32:51 INFO  epoch 1 training [time: 0.89s, train loss: 63.3890]
Tue 23 Apr 2024 16:32:51 INFO  Saving current: saved/ANS-Apr-23-2024_16-32-48.pth
…
