…
The number of items: 209394
Average actions of items: 38.30654319867426
The number of inters: 8021122
The sparsity of the dataset: 99.99805423465088%
Remain Fields: ['user_id', 'item_id']
Tue 23 Apr 2024 17:19:08 INFO  [Training]: train_batch_size = [2048] train_neg_sample_args: [{'distribution': 'uniform', 'sample_num': 1, 'alpha': 1.0, 'dynamic': False, 'candidate_num': 0}]
Tue 23 Apr 2024 17:19:08 INFO  [Evaluation]: eval_batch_size = [4096] eval_args: [{'split': {'RS': [0.8, 0.1, 0.1]}, 'group_by': 'user', 'order': 'RO', 'mode': 'full'}]
Tue 23 Apr 2024 17:20:34 INFO  ANS(
  (user_embedding): Embedding(1968704, 64)
  (item_embedding): Embedding(209394, 64)
  (mf_loss): BPRLoss()
  (reg_loss): EmbLoss()
  (user_gate): Linear(in_features=64, out_features=64, bias=True)
  (item_gate): Linear(in_features=64, out_features=64, bias=True)
  (pos_gate): Linear(in_features=64, out_features=64, bias=True)
  (neg_gate): Linear(in_features=64, out_features=64, bias=True)
  (hard_gate): Linear(in_features=64, out_features=64, bias=True)
  (conf_gate): Linear(in_features=64, out_features=64, bias=True)
  (easy_gate): Linear(in_features=64, out_features=64, bias=True)
  (margin_model): Linear(in_features=64, out_features=1, bias=True)
)
Trainable parameters: 139427457
Tue 23 Apr 2024 17:20:34 INFO  FLOPs: 0.0
Tue 23 Apr 2024 17:51:15 INFO  epoch 0 training [time: 1839.52s, train loss: 2357.4267]
