…
The number of inters: 100000
The sparsity of the dataset: 93.70575143257098%
Remain Fields: ['user_id', 'item_id', 'label']
Thu 23 May 2024 15:39:06 DEBUG  split by ratios [[0.8, 0.1, 0.1]], group_by=[user_id]
Thu 23 May 2024 15:39:06 INFO  [Training]: train_batch_size = [2048] train_neg_sample_args: [{'distribution': 'uniform', 'sample_num': 1, 'alpha': 1.0, 'dynamic': True, 'candidate_num': 1}]
Thu 23 May 2024 15:39:06 INFO  [Evaluation]: eval_batch_size = [4096] eval_args: [{'split': {'RS': [0.8, 0.1, 0.1]}, 'group_by': 'user', 'order': 'RO', 'mode': 'full'}]
Thu 23 May 2024 15:39:07 INFO  ANS(
  (user_embedding): Embedding(944, 64)
  (item_embedding): Embedding(1683, 64)
  (mf_loss): BPRLoss()
  (reg_loss): EmbLoss()
  (user_gate): Linear(in_features=64, out_features=64, bias=True)
  (item_gate): Linear(in_features=64, out_features=64, bias=True)
  (pos_gate): Linear(in_features=64, out_features=64, bias=True)
  (neg_gate): Linear(in_features=64, out_features=64, bias=True)
  (hard_gate): Linear(in_features=64, out_features=64, bias=True)
  (conf_gate): Linear(in_features=64, out_features=64, bias=True)
  (easy_gate): Linear(in_features=64, out_features=64, bias=True)
  (margin_model): Linear(in_features=64, out_features=1, bias=True)
)
Trainable parameters: 197313
Thu 23 May 2024 15:39:07 DEBUG  u_embeddings: torch.Size([1, 4, 64]) i_embeddings: torch.Size([1, 4, 64])
Thu 23 May 2024 15:39:07 DEBUG  predict scores: torch.Size([1, 64])
Thu 23 May 2024 15:39:07 DEBUG  predict scores: torch.Size([64, 1])
Thu 23 May 2024 15:39:07 DEBUG  len interaction: 1
Thu 23 May 2024 15:39:07 INFO  FLOPs: 0.0
…
