…
The number of items: 1448
Average actions of items: 38.26883206634416
The number of inters: 55375
The sparsity of the dataset: 95.944601981451%
Remain Fields: ['user_id', 'item_id', 'rating', 'timestamp']
Wed 24 Apr 2024 15:43:32 INFO  [Training]: train_batch_size = [2048] train_neg_sample_args: [{'distribution': 'uniform', 'sample_num': 1, 'alpha': 1.0, 'dynamic': False, 'candidate_num': 0}]
Wed 24 Apr 2024 15:43:32 INFO  [Evaluation]: eval_batch_size = [4096] eval_args: [{'split': {'RS': [0.8, 0.1, 0.1]}, 'group_by': 'user', 'order': 'RO', 'mode': 'full'}]
Wed 24 Apr 2024 15:43:33 INFO  ANS(
  (user_embedding): Embedding(943, 64)
  (item_embedding): Embedding(1448, 64)
  (mf_loss): BPRLoss()
  (reg_loss): EmbLoss()
  (user_gate): Linear(in_features=64, out_features=64, bias=True)
  (item_gate): Linear(in_features=64, out_features=64, bias=True)
  (pos_gate): Linear(in_features=64, out_features=64, bias=True)
  (neg_gate): Linear(in_features=64, out_features=64, bias=True)
  (hard_gate): Linear(in_features=64, out_features=64, bias=True)
  (conf_gate): Linear(in_features=64, out_features=64, bias=True)
  (easy_gate): Linear(in_features=64, out_features=64, bias=True)
  (margin_model): Linear(in_features=64, out_features=1, bias=True)
)
Trainable parameters: 182209
Wed 24 Apr 2024 15:43:33 INFO  FLOPs: 0.0
Wed 24 Apr 2024 15:43:35 INFO  epoch 0 training [time: 1.00s, train loss: 18.5599]
Wed 24 Apr 2024 15:43:36 INFO  epoch 0 evaluating [time: 0.47s, valid_score: 0.011000]
Wed 24 Apr 2024 15:43:36 INFO  valid result: 
recall@20 : 0.0124    mrr@20 : 0.011    ndcg@20 : 0.0069    hit@20 : 0.0701    precision@20 : 0.0038
…
