…
The number of inters: 100000
The sparsity of the dataset: 93.70575143257098%
Remain Fields: ['user_id', 'item_id', 'label']
Fri 24 May 2024 16:52:49 DEBUG  split by ratios [[0.7, 0.15, 0.15]], group_by=[user_id]
Fri 24 May 2024 16:52:49 INFO  [Training]: train_batch_size = [2048] train_neg_sample_args: [{'distribution': 'uniform', 'sample_num': 1, 'alpha': 1.0, 'dynamic': False, 'candidate_num': 1}]
Fri 24 May 2024 16:52:49 INFO  [Evaluation]: eval_batch_size = [4096] eval_args: [{'split': {'RS': [0.7, 0.15, 0.15]}, 'group_by': 'user', 'order': 'RO', 'mode': 'full'}]
Fri 24 May 2024 16:52:51 INFO  ANS(
  (user_embedding): Embedding(944, 64)
  (item_embedding): Embedding(1683, 64)
  (mf_loss): BPRLoss()
  (reg_loss): EmbLoss()
  (user_gate): Linear(in_features=64, out_features=64, bias=True)
  (item_gate): Linear(in_features=64, out_features=64, bias=True)
  (pos_gate): Linear(in_features=64, out_features=64, bias=True)
  (neg_gate): Linear(in_features=64, out_features=64, bias=True)
  (hard_gate): Linear(in_features=64, out_features=64, bias=True)
  (conf_gate): Linear(in_features=64, out_features=64, bias=True)
  (easy_gate): Linear(in_features=64, out_features=64, bias=True)
  (margin_model): Linear(in_features=64, out_features=1, bias=True)
)
Trainable parameters: 197313
Fri 24 May 2024 16:52:51 INFO  FLOPs: 0.0
Fri 24 May 2024 16:52:53 INFO  epoch 0 training [time: 1.31s, train loss: 28.2043]
Fri 24 May 2024 16:52:53 INFO  epoch 0 evaluating [time: 0.43s, valid_score: 0.032200]
Fri 24 May 2024 16:52:53 INFO  valid result: 
recall@20 : 0.0124    mrr@20 : 0.0322    ndcg@20 : 0.0124    hit@20 : 0.176    precision@20 : 0.0104
…
