…
The number of inters: 100000
The sparsity of the dataset: 93.70575143257098%
Remain Fields: ['user_id', 'item_id', 'label']
Mon 27 May 2024 19:45:40 DEBUG  split by ratios [[0.8, 0.1, 0.1]], group_by=[user_id]
Mon 27 May 2024 19:45:41 INFO  [Training]: train_batch_size = [2048] train_neg_sample_args: [{'distribution': 'uniform', 'sample_num': 1, 'alpha': 1.0, 'dynamic': False, 'candidate_num': 1}]
Mon 27 May 2024 19:45:41 INFO  [Evaluation]: eval_batch_size = [4096] eval_args: [{'split': {'RS': [0.8, 0.1, 0.1]}, 'group_by': 'user', 'order': 'RO', 'mode': 'full'}]
Mon 27 May 2024 19:45:42 INFO  ANS(
  (user_embedding): Embedding(944, 64)
  (item_embedding): Embedding(1683, 64)
  (mf_loss): BPRLoss()
  (reg_loss): EmbLoss()
  (user_gate): Linear(in_features=64, out_features=64, bias=True)
  (item_gate): Linear(in_features=64, out_features=64, bias=True)
  (pos_gate): Linear(in_features=64, out_features=64, bias=True)
  (neg_gate): Linear(in_features=64, out_features=64, bias=True)
  (hard_gate): Linear(in_features=64, out_features=64, bias=True)
  (conf_gate): Linear(in_features=64, out_features=64, bias=True)
  (easy_gate): Linear(in_features=64, out_features=64, bias=True)
  (margin_model): Linear(in_features=64, out_features=1, bias=True)
)
Trainable parameters: 197313
Mon 27 May 2024 19:45:42 INFO  FLOPs: 0.0
Mon 27 May 2024 19:45:43 DEBUG  Predicting for 944 users
Mon 27 May 2024 19:45:43 DEBUG  len of user 80808
Mon 27 May 2024 19:45:43 DEBUG  Predicting for user 0 with 1683 unused items
Mon 27 May 2024 19:45:43 DEBUG  Top 8 items for user 0: tensor([1230, 1112, 1370,  568,  777, 1364, 1494, 1160], device='cuda:0')
…
