…
The number of inters: 100000
The sparsity of the dataset: 93.70575143257098%
Remain Fields: ['user_id', 'item_id', 'label']
Sun 26 May 2024 18:40:14 DEBUG  split by ratios [[0.8, 0.1, 0.1]], group_by=[user_id]
Sun 26 May 2024 18:40:14 INFO  [Training]: train_batch_size = [2048] train_neg_sample_args: [{'distribution': 'uniform', 'sample_num': 1, 'alpha': 1.0, 'dynamic': False, 'candidate_num': 1}]
Sun 26 May 2024 18:40:14 INFO  [Evaluation]: eval_batch_size = [4096] eval_args: [{'split': {'RS': [0.8, 0.1, 0.1]}, 'group_by': 'user', 'order': 'RO', 'mode': 'full'}]
Sun 26 May 2024 18:40:16 INFO  ANS(
  (user_embedding): Embedding(944, 64)
  (item_embedding): Embedding(1683, 64)
  (mf_loss): BPRLoss()
  (reg_loss): EmbLoss()
  (user_gate): Linear(in_features=64, out_features=64, bias=True)
  (item_gate): Linear(in_features=64, out_features=64, bias=True)
  (pos_gate): Linear(in_features=64, out_features=64, bias=True)
  (neg_gate): Linear(in_features=64, out_features=64, bias=True)
  (hard_gate): Linear(in_features=64, out_features=64, bias=True)
  (conf_gate): Linear(in_features=64, out_features=64, bias=True)
  (easy_gate): Linear(in_features=64, out_features=64, bias=True)
  (margin_model): Linear(in_features=64, out_features=1, bias=True)
)
Trainable parameters: 197313
Sun 26 May 2024 18:40:16 INFO  FLOPs: 0.0
Sun 26 May 2024 18:40:17 DEBUG  Predicting for 944 users
Sun 26 May 2024 18:40:17 DEBUG  Predicting for user 0 with 1683 unused items
Sun 26 May 2024 18:40:17 DEBUG  shape of scores: torch.Size([1683])
Sun 26 May 2024 18:40:17 DEBUG  Top 5 items for user 0: tensor([1230, 1112, 1370,  568,  777], device='cuda:0')
…
