…
Mon 27 May 2024 23:27:43 DEBUG  Len inter feat: 9596
Mon 27 May 2024 23:27:43 DEBUG  dataset.inter_feat[self.uid_field].numpy(): 9596
Mon 27 May 2024 23:27:43 DEBUG  used_item_id keys: dict_keys(['train', 'valid'])
Mon 27 May 2024 23:27:44 INFO  [Training]: train_batch_size = [2048] train_neg_sample_args: [{'distribution': 'uniform', 'sample_num': 1, 'alpha': 1.0, 'dynamic': False, 'candidate_num': 1}]
Mon 27 May 2024 23:27:44 INFO  [Evaluation]: eval_batch_size = [4096] eval_args: [{'split': {'RS': [0.8, 0.1, 0.1]}, 'group_by': 'user', 'order': 'RO', 'mode': 'full'}]
Mon 27 May 2024 23:27:45 INFO  ANS(
  (user_embedding): Embedding(944, 64)
  (item_embedding): Embedding(1683, 64)
  (mf_loss): BPRLoss()
  (reg_loss): EmbLoss()
  (user_gate): Linear(in_features=64, out_features=64, bias=True)
  (item_gate): Linear(in_features=64, out_features=64, bias=True)
  (pos_gate): Linear(in_features=64, out_features=64, bias=True)
  (neg_gate): Linear(in_features=64, out_features=64, bias=True)
  (hard_gate): Linear(in_features=64, out_features=64, bias=True)
  (conf_gate): Linear(in_features=64, out_features=64, bias=True)
  (easy_gate): Linear(in_features=64, out_features=64, bias=True)
  (margin_model): Linear(in_features=64, out_features=1, bias=True)
)
Trainable parameters: 197313
Mon 27 May 2024 23:27:45 INFO  FLOPs: 0.0
Mon 27 May 2024 23:27:46 DEBUG   length of inter_feat: 80808
Mon 27 May 2024 23:27:46 DEBUG   length of dataset: 80808
Mon 27 May 2024 23:27:46 DEBUG  len check_list: 2048 len key ids: 2048 len used_ids 944
Mon 27 May 2024 23:27:46 DEBUG  type used_ids: <class 'numpy.ndarray'> type key_ids: <class 'numpy.ndarray'> type check_list: <class 'numpy.ndarray'>
…
