…
Tue 30 Apr 2024 15:07:49 DEBUG  80811
Tue 30 Apr 2024 15:07:49 DEBUG  Classname: AugmentedDataset
Tue 30 Apr 2024 15:07:49 DEBUG  Augmented dataset
Tue 30 Apr 2024 15:07:49 DEBUG  Nach augmentation: 81751
Tue 30 Apr 2024 15:07:49 INFO  [Training]: train_batch_size = [2048] train_neg_sample_args: [{'distribution': 'uniform', 'sample_num': 1, 'alpha': 1.0, 'dynamic': False, 'candidate_num': 0}]
Tue 30 Apr 2024 15:07:49 INFO  [Evaluation]: eval_batch_size = [4096] eval_args: [{'split': {'RS': [0.8, 0.1, 0.1]}, 'group_by': 'user', 'order': 'RO', 'mode': 'full'}]
Tue 30 Apr 2024 15:07:50 INFO  ANS(
  (user_embedding): Embedding(944, 64)
  (item_embedding): Embedding(1683, 64)
  (mf_loss): BPRLoss()
  (reg_loss): EmbLoss()
  (user_gate): Linear(in_features=64, out_features=64, bias=True)
  (item_gate): Linear(in_features=64, out_features=64, bias=True)
  (pos_gate): Linear(in_features=64, out_features=64, bias=True)
  (neg_gate): Linear(in_features=64, out_features=64, bias=True)
  (hard_gate): Linear(in_features=64, out_features=64, bias=True)
  (conf_gate): Linear(in_features=64, out_features=64, bias=True)
  (easy_gate): Linear(in_features=64, out_features=64, bias=True)
  (margin_model): Linear(in_features=64, out_features=1, bias=True)
)
Trainable parameters: 197313
Tue 30 Apr 2024 15:07:50 INFO  FLOPs: 0.0
Tue 30 Apr 2024 15:07:52 INFO  epoch 0 training [time: 1.39s, train loss: 32.2285]
Tue 30 Apr 2024 15:07:53 INFO  epoch 0 evaluating [time: 0.45s, valid_score: 0.025900]
Tue 30 Apr 2024 15:07:53 INFO  valid result: 
recall@20 : 0.0129    mrr@20 : 0.0259    ndcg@20 : 0.0104    hit@20 : 0.1241    precision@20 : 0.0071
…
