…
Fri 05 Jul 2024 11:09:04 DEBUG  80811
Fri 05 Jul 2024 11:09:04 DEBUG  Classname: AugmentedDataset
Fri 05 Jul 2024 11:09:04 DEBUG  Augmented dataset
Fri 05 Jul 2024 11:09:04 DEBUG  Nach augmentation: 81751
Fri 05 Jul 2024 11:09:04 INFO  [Training]: train_batch_size = [2048] train_neg_sample_args: [{'distribution': 'uniform', 'sample_num': 5, 'alpha': 1.0, 'dynamic': False, 'candidate_num': 0}]
Fri 05 Jul 2024 11:09:04 INFO  [Evaluation]: eval_batch_size = [4096] eval_args: [{'split': {'RS': [0.8, 0.1, 0.1]}, 'group_by': 'user', 'order': 'RO', 'mode': 'full'}]
Fri 05 Jul 2024 11:09:06 INFO  ANS(
  (user_embedding): Embedding(944, 64)
  (item_embedding): Embedding(1683, 64)
  (mf_loss): BPRLoss()
  (reg_loss): EmbLoss()
  (user_gate): Linear(in_features=64, out_features=64, bias=True)
  (item_gate): Linear(in_features=64, out_features=64, bias=True)
  (pos_gate): Linear(in_features=64, out_features=64, bias=True)
  (neg_gate): Linear(in_features=64, out_features=64, bias=True)
  (hard_gate): Linear(in_features=64, out_features=64, bias=True)
  (conf_gate): Linear(in_features=64, out_features=64, bias=True)
  (easy_gate): Linear(in_features=64, out_features=64, bias=True)
  (margin_model): Linear(in_features=64, out_features=1, bias=True)
)
Trainable parameters: 197313
Fri 05 Jul 2024 11:09:06 INFO  FLOPs: 0.0
Fri 05 Jul 2024 11:09:06 DEBUG  matplotlib data path: /home/simeon/miniconda3/envs/recbole/lib/python3.11/site-packages/matplotlib/mpl-data
Fri 05 Jul 2024 11:09:06 DEBUG  CONFIGDIR=/home/simeon/.config/matplotlib
Fri 05 Jul 2024 11:09:06 DEBUG  interactive is False
Fri 05 Jul 2024 11:09:06 DEBUG  platform is linux
…
