…
 {512, 961, 2, 131, 5, 586, 140, 653, 720, 595, 405, 281, 1562, 158, 609, 290, 354, 99, 421, 808, 105, 752, 49, 118, 185, 61}
 {64, 1024, 69, 453, 11, 141, 142, 653, 13, 210, 25, 154, 158, 159, 96, 673, 356, 615, 936, 874, 181, 53}]
Mon 27 May 2024 19:55:27 INFO  [Training]: train_batch_size = [2048] train_neg_sample_args: [{'distribution': 'uniform', 'sample_num': 1, 'alpha': 1.0, 'dynamic': False, 'candidate_num': 1}]
Mon 27 May 2024 19:55:27 INFO  [Evaluation]: eval_batch_size = [4096] eval_args: [{'split': {'RS': [0.8, 0.1, 0.1]}, 'group_by': 'user', 'order': 'RO', 'mode': 'full'}]
Mon 27 May 2024 19:55:28 INFO  ANS(
  (user_embedding): Embedding(944, 64)
  (item_embedding): Embedding(1683, 64)
  (mf_loss): BPRLoss()
  (reg_loss): EmbLoss()
  (user_gate): Linear(in_features=64, out_features=64, bias=True)
  (item_gate): Linear(in_features=64, out_features=64, bias=True)
  (pos_gate): Linear(in_features=64, out_features=64, bias=True)
  (neg_gate): Linear(in_features=64, out_features=64, bias=True)
  (hard_gate): Linear(in_features=64, out_features=64, bias=True)
  (conf_gate): Linear(in_features=64, out_features=64, bias=True)
  (easy_gate): Linear(in_features=64, out_features=64, bias=True)
  (margin_model): Linear(in_features=64, out_features=1, bias=True)
)
Trainable parameters: 197313
Mon 27 May 2024 19:55:28 INFO  FLOPs: 0.0
Mon 27 May 2024 19:55:29 DEBUG   length of inter_feat: 80808
Mon 27 May 2024 19:55:29 DEBUG   length of dataset: 80808
