…
The number of items: 17633
Average actions of items: 5.265086206896552
The number of inters: 92834
The sparsity of the dataset: 99.72188126708227%
Remain Fields: ['user_id', 'artist_id']
Wed 03 Jul 2024 13:48:10 INFO  [Training]: train_batch_size = [2048] train_neg_sample_args: [{'distribution': 'uniform', 'sample_num': 5, 'alpha': 1.0, 'dynamic': False, 'candidate_num': 0}]
Wed 03 Jul 2024 13:48:10 INFO  [Evaluation]: eval_batch_size = [4096] eval_args: [{'split': {'RS': [0.8, 0.1, 0.1]}, 'group_by': 'user', 'order': 'RO', 'mode': 'full'}]
Wed 03 Jul 2024 13:48:11 INFO  ANS(
  (user_embedding): Embedding(1893, 64)
  (item_embedding): Embedding(17633, 64)
  (mf_loss): BPRLoss()
  (reg_loss): EmbLoss()
  (user_gate): Linear(in_features=64, out_features=64, bias=True)
  (item_gate): Linear(in_features=64, out_features=64, bias=True)
  (pos_gate): Linear(in_features=64, out_features=64, bias=True)
  (neg_gate): Linear(in_features=64, out_features=64, bias=True)
  (hard_gate): Linear(in_features=64, out_features=64, bias=True)
  (conf_gate): Linear(in_features=64, out_features=64, bias=True)
  (easy_gate): Linear(in_features=64, out_features=64, bias=True)
  (margin_model): Linear(in_features=64, out_features=1, bias=True)
)
Trainable parameters: 1278849
Wed 03 Jul 2024 13:48:11 INFO  FLOPs: 0.0
Wed 03 Jul 2024 13:48:23 INFO  epoch 0 training [time: 11.32s, train loss: 129.9993]
Wed 03 Jul 2024 13:48:23 INFO  epoch 0 evaluating [time: 0.61s, valid_score: 0.000800]
Wed 03 Jul 2024 13:48:23 INFO  valid result: 
recall@20 : 0.0008    mrr@20 : 0.0007    ndcg@20 : 0.0005    hit@20 : 0.0042    precision@20 : 0.0002
…
