…
Sat 25 May 2024 15:44:43 DEBUG  80811
Sat 25 May 2024 15:44:43 DEBUG  Classname: AugmentedDataset
Sat 25 May 2024 15:44:43 DEBUG  Augmented dataset
Sat 25 May 2024 15:44:43 DEBUG  Nach augmentation: 81751
Sat 25 May 2024 15:44:43 INFO  [Training]: train_batch_size = [2048] train_neg_sample_args: [{'distribution': 'uniform', 'sample_num': 1, 'alpha': 1.0, 'dynamic': False, 'candidate_num': 1}]
Sat 25 May 2024 15:44:43 INFO  [Evaluation]: eval_batch_size = [4096] eval_args: [{'split': {'RS': [0.8, 0.1, 0.1]}, 'group_by': 'user', 'order': 'RO', 'mode': 'full'}]
Sat 25 May 2024 15:44:45 INFO  ANS(
  (user_embedding): Embedding(944, 64)
  (item_embedding): Embedding(1683, 64)
  (mf_loss): BPRLoss()
  (reg_loss): EmbLoss()
  (user_gate): Linear(in_features=64, out_features=64, bias=True)
  (item_gate): Linear(in_features=64, out_features=64, bias=True)
  (pos_gate): Linear(in_features=64, out_features=64, bias=True)
  (neg_gate): Linear(in_features=64, out_features=64, bias=True)
  (hard_gate): Linear(in_features=64, out_features=64, bias=True)
  (conf_gate): Linear(in_features=64, out_features=64, bias=True)
  (easy_gate): Linear(in_features=64, out_features=64, bias=True)
  (margin_model): Linear(in_features=64, out_features=1, bias=True)
)
Trainable parameters: 197313
Sat 25 May 2024 15:44:45 INFO  FLOPs: 0.0
Sat 25 May 2024 15:44:45 DEBUG  len train_data: 81751
Sat 25 May 2024 15:44:47 INFO  epoch 0 training [time: 1.16s, train loss: 32.2285]
Sat 25 May 2024 15:44:47 INFO  epoch 0 evaluating [time: 0.45s, valid_score: 0.025900]
Sat 25 May 2024 15:44:47 INFO  valid result: 
recall@20 : 0.0129    mrr@20 : 0.0259    ndcg@20 : 0.0104    hit@20 : 0.1241    precision@20 : 0.0071
…
