…
Tue 07 May 2024 13:38:48 DEBUG  80811
Tue 07 May 2024 13:38:48 DEBUG  Classname: AugmentedDataset
Tue 07 May 2024 13:38:48 DEBUG  Augmented dataset
Tue 07 May 2024 13:38:48 DEBUG  Nach augmentation: 81751
Tue 07 May 2024 13:38:48 INFO  [Training]: train_batch_size = [2048] train_neg_sample_args: [{'distribution': 'uniform', 'sample_num': 1, 'alpha': 1.0, 'dynamic': False, 'candidate_num': 0}]
Tue 07 May 2024 13:38:48 INFO  [Evaluation]: eval_batch_size = [4096] eval_args: [{'split': {'RS': [0.8, 0.1, 0.1]}, 'group_by': 'user', 'order': 'RO', 'mode': 'full'}]
Tue 07 May 2024 13:38:49 INFO  ANS(
  (user_embedding): Embedding(944, 64)
  (item_embedding): Embedding(1683, 64)
  (mf_loss): BPRLoss()
  (reg_loss): EmbLoss()
  (user_gate): Linear(in_features=64, out_features=64, bias=True)
  (item_gate): Linear(in_features=64, out_features=64, bias=True)
  (pos_gate): Linear(in_features=64, out_features=64, bias=True)
  (neg_gate): Linear(in_features=64, out_features=64, bias=True)
  (hard_gate): Linear(in_features=64, out_features=64, bias=True)
  (conf_gate): Linear(in_features=64, out_features=64, bias=True)
  (easy_gate): Linear(in_features=64, out_features=64, bias=True)
  (margin_model): Linear(in_features=64, out_features=1, bias=True)
)
Trainable parameters: 197313
Tue 07 May 2024 13:38:49 INFO  FLOPs: 0.0
Tue 07 May 2024 13:38:50 DEBUG  neg_embeddings: torch.Size([2048, 1, 4, 64]) pos_embeddings: torch.Size([2048, 4, 64]) u_embeddings: torch.Size([2048, 4, 64])
Tue 07 May 2024 13:38:50 DEBUG  neg_embeddings: torch.Size([2048, 1, 4, 64]) pos_embeddings: torch.Size([2048, 4, 64]) u_embeddings: torch.Size([2048, 4, 64])
…
