…
The number of inters: 1000209
The sparsity of the dataset: 95.53358229599758%
Remain Fields: ['user_id', 'item_id', 'label']
Thu 30 May 2024 16:18:04 DEBUG  split by ratios [[0.8, 0.1, 0.1]], group_by=[user_id]
Thu 30 May 2024 16:18:05 INFO  [Training]: train_batch_size = [2048] train_neg_sample_args: [{'distribution': 'uniform', 'sample_num': 1, 'alpha': 1.0, 'dynamic': False, 'candidate_num': 1}]
Thu 30 May 2024 16:18:05 INFO  [Evaluation]: eval_batch_size = [4096] eval_args: [{'split': {'RS': [0.8, 0.1, 0.1]}, 'group_by': 'user', 'order': 'RO', 'mode': 'full'}]
Thu 30 May 2024 16:18:16 INFO  ANS(
  (user_embedding): Embedding(6041, 64)
  (item_embedding): Embedding(3707, 64)
  (mf_loss): BPRLoss()
  (reg_loss): EmbLoss()
  (user_gate): Linear(in_features=64, out_features=64, bias=True)
  (item_gate): Linear(in_features=64, out_features=64, bias=True)
  (pos_gate): Linear(in_features=64, out_features=64, bias=True)
  (neg_gate): Linear(in_features=64, out_features=64, bias=True)
  (hard_gate): Linear(in_features=64, out_features=64, bias=True)
  (conf_gate): Linear(in_features=64, out_features=64, bias=True)
  (easy_gate): Linear(in_features=64, out_features=64, bias=True)
  (margin_model): Linear(in_features=64, out_features=1, bias=True)
)
Trainable parameters: 653057
Thu 30 May 2024 16:18:17 INFO  FLOPs: 0.0
Thu 30 May 2024 16:18:18 DEBUG   length of inter_feat: 805443
Thu 30 May 2024 16:18:18 DEBUG   length of dataset: 805443
Thu 30 May 2024 16:18:18 DEBUG  total loss: None
Thu 30 May 2024 16:18:18 DEBUG  total loss: 0.8026629686355591
Thu 30 May 2024 16:18:18 DEBUG  total loss: 1.6051556468009949
…
