…
The number of inters: 100000
The sparsity of the dataset: 93.70575143257098%
Remain Fields: ['user_id', 'item_id', 'label']
Mon 27 May 2024 18:58:15 DEBUG  split by ratios [[0.8, 0.1, 0.1]], group_by=[user_id]
Mon 27 May 2024 18:58:15 INFO  [Training]: train_batch_size = [2048] train_neg_sample_args: [{'distribution': 'uniform', 'sample_num': 1, 'alpha': 1.0, 'dynamic': False, 'candidate_num': 1}]
Mon 27 May 2024 18:58:15 INFO  [Evaluation]: eval_batch_size = [4096] eval_args: [{'split': {'RS': [0.8, 0.1, 0.1]}, 'group_by': 'user', 'order': 'RO', 'mode': 'full'}]
Mon 27 May 2024 18:58:17 INFO  ANS(
  (user_embedding): Embedding(944, 64)
  (item_embedding): Embedding(1683, 64)
  (mf_loss): BPRLoss()
  (reg_loss): EmbLoss()
  (user_gate): Linear(in_features=64, out_features=64, bias=True)
  (item_gate): Linear(in_features=64, out_features=64, bias=True)
  (pos_gate): Linear(in_features=64, out_features=64, bias=True)
  (neg_gate): Linear(in_features=64, out_features=64, bias=True)
  (hard_gate): Linear(in_features=64, out_features=64, bias=True)
  (conf_gate): Linear(in_features=64, out_features=64, bias=True)
  (easy_gate): Linear(in_features=64, out_features=64, bias=True)
  (margin_model): Linear(in_features=64, out_features=1, bias=True)
)
Trainable parameters: 197313
Mon 27 May 2024 18:58:17 INFO  FLOPs: 0.0
Mon 27 May 2024 18:58:17 DEBUG  user_set: {512, 4, 516, 7, 9, 10, 1035, 13, 526, 527, 14, 529, 23, 24, 25, 1050, 27, 541, 30, 1055, 31, 33, 34, 1057, 550, 39, 561, 50, 53, 54, 1077, 1078, 572, 60, 574, 65, 66, 1090, 578, 1093, 588, 1101, 78, 80, 1620, 597, 89, 94, 1120, 97, 96, 611, 
…
