…
The number of inters: 100000
The sparsity of the dataset: 93.70575143257098%
Remain Fields: ['user_id', 'item_id', 'label']
Fri 17 May 2024 16:31:41 DEBUG  split by ratios [[0.8, 0.1, 0.1]], group_by=[user_id]
Fri 17 May 2024 16:31:41 INFO  [Training]: train_batch_size = [2048] train_neg_sample_args: [{'distribution': 'uniform', 'sample_num': 1, 'alpha': 1.0, 'dynamic': False, 'candidate_num': 4}]
Fri 17 May 2024 16:31:41 INFO  [Evaluation]: eval_batch_size = [4096] eval_args: [{'split': {'RS': [0.8, 0.1, 0.1]}, 'group_by': 'user', 'order': 'RO', 'mode': 'full'}]
Fri 17 May 2024 16:31:42 INFO  ANS(
  (user_embedding): Embedding(944, 64)
  (item_embedding): Embedding(1683, 64)
  (mf_loss): BPRLoss()
  (reg_loss): EmbLoss()
  (user_gate): Linear(in_features=64, out_features=64, bias=True)
  (item_gate): Linear(in_features=64, out_features=64, bias=True)
  (pos_gate): Linear(in_features=64, out_features=64, bias=True)
  (neg_gate): Linear(in_features=64, out_features=64, bias=True)
  (hard_gate): Linear(in_features=64, out_features=64, bias=True)
  (conf_gate): Linear(in_features=64, out_features=64, bias=True)
  (easy_gate): Linear(in_features=64, out_features=64, bias=True)
  (margin_model): Linear(in_features=64, out_features=1, bias=True)
)
Trainable parameters: 197313
Fri 17 May 2024 16:31:42 INFO  FLOPs: 0.0
Fri 17 May 2024 16:31:43 DEBUG  Number interactions before neg sampling: 2048
Fri 17 May 2024 16:31:43 DEBUG  Number interactions after concat: 4096
Fri 17 May 2024 16:31:44 DEBUG  Number interactions before neg sampling: 2048
Fri 17 May 2024 16:31:44 DEBUG  Number interactions after concat: 4096
…
