…
The number of items: 1683
Average actions of items: 59.45303210463734
The number of inters: 100000
The sparsity of the dataset: 93.70575143257098%
Remain Fields: ['user_id', 'item_id', 'rating', 'timestamp']
Thu 18 Apr 2024 15:11:41 INFO  [Training]: train_batch_size = [1024] train_neg_sample_args: [{'distribution': 'uniform', 'sample_num': 1, 'alpha': 1.0, 'dynamic': False, 'candidate_num': 0}]
Thu 18 Apr 2024 15:11:41 INFO  [Evaluation]: eval_batch_size = [4096] eval_args: [{'split': {'RS': [0.8, 0.1, 0.1]}, 'group_by': 'user', 'order': 'RO', 'mode': 'full'}]
Thu 18 Apr 2024 15:11:42 INFO  ANS(
  (user_embedding): Embedding(944, 64)
  (item_embedding): Embedding(1683, 64)
  (mf_loss): BPRLoss()
  (reg_loss): EmbLoss()
  (user_gate): Linear(in_features=64, out_features=64, bias=True)
  (item_gate): Linear(in_features=64, out_features=64, bias=True)
  (pos_gate): Linear(in_features=64, out_features=64, bias=True)
  (neg_gate): Linear(in_features=64, out_features=64, bias=True)
  (hard_gate): Linear(in_features=64, out_features=64, bias=True)
  (conf_gate): Linear(in_features=64, out_features=64, bias=True)
  (easy_gate): Linear(in_features=64, out_features=64, bias=True)
  (margin_model): Linear(in_features=64, out_features=1, bias=True)
)
Trainable parameters: 197313
Thu 18 Apr 2024 15:11:42 INFO  FLOPs: 0.0
Thu 18 Apr 2024 15:11:44 INFO  epoch 0 training [time: 1.56s, train loss: 63.5789]
Thu 18 Apr 2024 15:11:45 INFO  epoch 0 evaluating [time: 0.45s, valid_score: 0.012900]
Thu 18 Apr 2024 15:11:45 INFO  valid result: 
recall@20 : 0.0046    mrr@20 : 0.0129    ndcg@20 : 0.0045    hit@20 : 0.0657    precision@20 : 0.0036
…
