…
The number of inters: 100000
The sparsity of the dataset: 93.70575143257098%
Remain Fields: ['user_id', 'item_id', 'label']
Thu 23 May 2024 16:15:55 DEBUG  split by ratios [[0.8, 0.1, 0.1]], group_by=[user_id]
Thu 23 May 2024 16:15:55 INFO  [Training]: train_batch_size = [2048] train_neg_sample_args: [{'distribution': 'uniform', 'sample_num': 1, 'alpha': 1.0, 'dynamic': False, 'candidate_num': 1}]
Thu 23 May 2024 16:15:55 INFO  [Evaluation]: eval_batch_size = [4096] eval_args: [{'split': {'RS': [0.8, 0.1, 0.1]}, 'group_by': 'user', 'order': 'RO', 'mode': 'full'}]
Thu 23 May 2024 16:15:56 INFO  ANS(
  (user_embedding): Embedding(944, 64)
  (item_embedding): Embedding(1683, 64)
  (mf_loss): BPRLoss()
  (reg_loss): EmbLoss()
  (user_gate): Linear(in_features=64, out_features=64, bias=True)
  (item_gate): Linear(in_features=64, out_features=64, bias=True)
  (pos_gate): Linear(in_features=64, out_features=64, bias=True)
  (neg_gate): Linear(in_features=64, out_features=64, bias=True)
  (hard_gate): Linear(in_features=64, out_features=64, bias=True)
  (conf_gate): Linear(in_features=64, out_features=64, bias=True)
  (easy_gate): Linear(in_features=64, out_features=64, bias=True)
  (margin_model): Linear(in_features=64, out_features=1, bias=True)
)
Trainable parameters: 197313
Thu 23 May 2024 16:15:56 INFO  FLOPs: 0.0
Thu 23 May 2024 16:15:58 INFO  epoch 0 training [time: 1.22s, train loss: 32.2292]
Thu 23 May 2024 16:16:00 INFO  epoch 0 evaluating [time: 1.64s, valid_score: 0.000200]
Thu 23 May 2024 16:16:00 INFO  valid result: 
recall@20 : nan    mrr@20 : 0.0002    ndcg@20 : 0.0001    hit@20 : 0.0015    precision@20 : 0.0001
…
