…
Thu 25 Apr 2024 23:15:41 DEBUG  Positive items: [   1    2  131  185  215  244  252  326  347  396  492  653  720  825
  951 1121]
Thu 25 Apr 2024 23:15:41 DEBUG  Classname: AugmentedDataset
Thu 25 Apr 2024 23:15:41 DEBUG  Augmented dataset
Thu 25 Apr 2024 23:15:41 INFO  [Training]: train_batch_size = [2048] train_neg_sample_args: [{'distribution': 'uniform', 'sample_num': 1, 'alpha': 1.0, 'dynamic': False, 'candidate_num': 0}]
Thu 25 Apr 2024 23:15:41 INFO  [Evaluation]: eval_batch_size = [4096] eval_args: [{'split': {'RS': [0.8, 0.1, 0.1]}, 'group_by': 'user', 'order': 'RO', 'mode': 'full'}]
Thu 25 Apr 2024 23:15:42 INFO  ANS(
  (user_embedding): Embedding(944, 64)
  (item_embedding): Embedding(1683, 64)
  (mf_loss): BPRLoss()
  (reg_loss): EmbLoss()
  (user_gate): Linear(in_features=64, out_features=64, bias=True)
  (item_gate): Linear(in_features=64, out_features=64, bias=True)
  (pos_gate): Linear(in_features=64, out_features=64, bias=True)
  (neg_gate): Linear(in_features=64, out_features=64, bias=True)
  (hard_gate): Linear(in_features=64, out_features=64, bias=True)
  (conf_gate): Linear(in_features=64, out_features=64, bias=True)
  (easy_gate): Linear(in_features=64, out_features=64, bias=True)
  (margin_model): Linear(in_features=64, out_features=1, bias=True)
)
Trainable parameters: 197313
Thu 25 Apr 2024 23:15:42 INFO  FLOPs: 0.0
Thu 25 Apr 2024 23:15:43 DEBUG  Sampler class name: RandomSampler
Thu 25 Apr 2024 23:15:44 INFO  epoch 0 training [time: 1.23s, train loss: 32.2292]
Thu 25 Apr 2024 23:15:45 INFO  epoch 0 evaluating [time: 0.47s, valid_score: 0.026400]
Thu 25 Apr 2024 23:15:45 INFO  valid result: 
recall@20 : 0.0125    mrr@20 : 0.0264    ndcg@20 : 0.0103    hit@20 : 0.1241    precision@20 : 0.007
…
