…
The number of items: 1683
Average actions of items: 59.45243757431629
The number of inters: 99999
The sparsity of the dataset: 93.70581437505665%
Remain Fields: ['user_id', 'item_id', 'rating', 'timestamp']
Wed 24 Apr 2024 15:40:28 INFO  [Training]: train_batch_size = [2048] train_neg_sample_args: [{'distribution': 'uniform', 'sample_num': 1, 'alpha': 1.0, 'dynamic': False, 'candidate_num': 0}]
Wed 24 Apr 2024 15:40:28 INFO  [Evaluation]: eval_batch_size = [4096] eval_args: [{'split': {'RS': [0.8, 0.1, 0.1]}, 'group_by': 'user', 'order': 'RO', 'mode': 'full'}]
Wed 24 Apr 2024 15:40:30 INFO  ANS(
  (user_embedding): Embedding(944, 64)
  (item_embedding): Embedding(1683, 64)
  (mf_loss): BPRLoss()
  (reg_loss): EmbLoss()
  (user_gate): Linear(in_features=64, out_features=64, bias=True)
  (item_gate): Linear(in_features=64, out_features=64, bias=True)
  (pos_gate): Linear(in_features=64, out_features=64, bias=True)
  (neg_gate): Linear(in_features=64, out_features=64, bias=True)
  (hard_gate): Linear(in_features=64, out_features=64, bias=True)
  (conf_gate): Linear(in_features=64, out_features=64, bias=True)
  (easy_gate): Linear(in_features=64, out_features=64, bias=True)
  (margin_model): Linear(in_features=64, out_features=1, bias=True)
)
Trainable parameters: 197313
Wed 24 Apr 2024 15:40:30 INFO  FLOPs: 0.0
Wed 24 Apr 2024 15:40:32 INFO  epoch 0 training [time: 1.36s, train loss: 32.2284]
Wed 24 Apr 2024 15:40:33 INFO  epoch 0 evaluating [time: 0.47s, valid_score: 0.024600]
Wed 24 Apr 2024 15:40:33 INFO  valid result: 
recall@20 : 0.0136    mrr@20 : 0.0246    ndcg@20 : 0.0099    hit@20 : 0.1029    precision@20 : 0.0057
…
