…
Tue 30 Apr 2024 14:55:34 DEBUG  80816
Tue 30 Apr 2024 14:55:34 DEBUG  Classname: AugmentedDataset
Tue 30 Apr 2024 14:55:34 DEBUG  Augmented dataset
Tue 30 Apr 2024 14:55:34 DEBUG  Nach augmentation: 83637
Tue 30 Apr 2024 14:55:34 INFO  [Training]: train_batch_size = [2048] train_neg_sample_args: [{'distribution': 'uniform', 'sample_num': 1, 'alpha': 1.0, 'dynamic': False, 'candidate_num': 0}]
Tue 30 Apr 2024 14:55:34 INFO  [Evaluation]: eval_batch_size = [4096] eval_args: [{'split': {'RS': [0.8, 0.1, 0.1]}, 'group_by': 'user', 'order': 'RO', 'mode': 'full'}]
Tue 30 Apr 2024 14:55:36 INFO  ANS(
  (user_embedding): Embedding(944, 64)
  (item_embedding): Embedding(1683, 64)
  (mf_loss): BPRLoss()
  (reg_loss): EmbLoss()
  (user_gate): Linear(in_features=64, out_features=64, bias=True)
  (item_gate): Linear(in_features=64, out_features=64, bias=True)
  (pos_gate): Linear(in_features=64, out_features=64, bias=True)
  (neg_gate): Linear(in_features=64, out_features=64, bias=True)
  (hard_gate): Linear(in_features=64, out_features=64, bias=True)
  (conf_gate): Linear(in_features=64, out_features=64, bias=True)
  (easy_gate): Linear(in_features=64, out_features=64, bias=True)
  (margin_model): Linear(in_features=64, out_features=1, bias=True)
)
Trainable parameters: 197313
Tue 30 Apr 2024 14:55:36 INFO  FLOPs: 0.0
Tue 30 Apr 2024 14:55:37 DEBUG  Sampler class name: RandomSampler
Tue 30 Apr 2024 14:55:38 INFO  epoch 0 training [time: 1.51s, train loss: 33.0361]
Tue 30 Apr 2024 14:55:39 INFO  epoch 0 evaluating [time: 0.48s, valid_score: 0.025300]
Tue 30 Apr 2024 14:55:39 INFO  valid result: 
recall@20 : 0.0121    mrr@20 : 0.0253    ndcg@20 : 0.0101    hit@20 : 0.1198    precision@20 : 0.0069
…
